model/model.pth (torch, 16799 bytes, 4 tensors)

linear1.weight f4 [256, 11]
-0.23038411 0.42625418 0.15565646 0.034215808 0.06143831 -0.23898846 0.24556302 -0.031378552
-0.085108794 0.20175926 0.14767838 0.4218873 -0.06587243 -0.003735783 0.03920088 0.30460703
-0.27574027 0.25307623 0.062215637 -0.15925477 -0.07540874 -0.16349623 0.20365995 -0.1876895
0.18962988 -0.30869964 -0.14779516 0.12241943 -0.27092245 -0.2496411 0.23486085 0.17144316
0.24001658 -0.13866673 -0.16103937 -0.2565202 0.11314268 -0.118790284 0.20818429 0.3358507
0.058264896 -0.27177683 -0.3245275 -0.008867946 -0.43828914 0.5399701 -0.106834464 -0.25046203
-0.23225689 -0.1236919 0.07083205 0.21231371 -0.2005382 0.013215335 0.21964566 -0.2898291
0.09023317 0.009649964 0.20421787 0.25312388 -0.13169013 -0.2570805 -0.13778016 -0.110119864
-0.1978161 -0.2440683 -0.24548542 0.22987844 -0.25235265 -0.2466379 0.2978736 0.20602246
-0.091793716 -0.11751597 0.07742752 -0.22636387 -0.009792303 -0.05482537 0.14424972 0.3228784
-0.002808923 -0.08879087 0.12983876 0.16840674 -0.17085823 0.24797304 0.3407866 -0.2519089
0.20402117 0.17829439 -0.4717031 0.16971944 0.09149738 -0.17619216 -0.19579336 -0.3594498
0.2624029 0.23540072 -0.07730286 0.10434294 0.2934892 -0.07435111 0.22418939 0.16391912
0.061919592 0.029897675 0.15103179 0.2932925 0.38598886 -0.25366217 -0.27757663 0.0680641
-0.045251414 -0.090705454 -0.07661247 -0.06871424 -0.28104037 0.091564484 -0.24413292 -0.24629222
0.01426123 0.33537844 0.069310285 0.4630149 0.07506969 0.170631 -0.007914695 0.017417008
-0.23806477 0.09704229 -0.14669493 -0.1766381 0.1970366 -0.2742372 0.3077951 0.1694074
0.085565135 -0.038810916 0.15197748 -0.025298988 -0.2720157 0.16268748 -0.32425275 0.357453
0.1010615 -0.028359475 -0.13910528 -0.14450976 -0.21794029 0.3383586 -0.044650994 -0.04196355
0.2506303 -0.2991912 0.2798928 0.09227678 -0.1395477 0.009861213 -0.1482211 0.18521373
-0.11350782 0.24567159 -0.10594537 0.12676656 0.035574418 -0.03642271 -0.07610257 -0.3947934
0.4179103 -0.18191066 -0.21865946 -0.15968339 -0.18536946 0.04987223 0.15394732 0.08717158
-0.026031604 0.31203732 -0.04360776 -0.11582073 0.061154254 -0.037724186 -0.26321158 0.08486353
-0.27215374 -0.1188016 0.10065213 0.1496838 -0.122625515 0.35702255 0.006021726 -0.37537327
0.114331484 -0.24127647 -0.1881761 -0.038427953 0.008638195 -0.05655565 0.034375995 -0.0064427764
0.38954565 0.009288629 -0.12588055 0.07721841 -0.16293928 0.07762831 0.1182908 -0.061901696
-0.09014296 -0.2286154 0.03833916 -0.27147058 -0.2024769 0.033205308 -0.006936832 -0.13951923
0.13598514 0.099743605 -0.0380817 -0.112090364 -0.032090914 -0.16833709 0.18095882 0.07308296
0.11482742 -0.0056474083 0.2151199 -0.16057189 -0.3763234 0.20556214 -0.43411854 0.09501026
-0.25240612 0.42010877 -0.0767735 -0.24587853 -0.26492926 0.11833118 0.112452514 0.21573225
0.18256287 -0.109186366 -0.038502116 -0.2573815 -0.20927264 -0.04520614 0.049619716 -0.18274081
0.22468396 0.23296356 0.0755584 0.106732644 -0.11582124 -0.10103291 0.30945837 -0.3106364
00000000: d0e9 6bbe fd3d da3e 6864 1f3e e025 0c3d
00000010: bda6 7b3d 64b9 74be df74 7b3e cc86 00bd
00000020: 854d aebd fb99 4e3e 0039 173e 9d01 d83e
00000030: 20e8 86bd 0ad4 74bb 1a91 203d 74f5 9b3e
00000040: d42d 8dbe 3593 813e d3d5 7e3d af13 23be
00000050: e66f 9abd 8e6b 27be 3c8c 503e ad31 40be
00000060: 562e 423e e10d 9ebe 9d57 17be 0ab7 fa3d
00000070: 59b6 8abe eba1 7fbe 5d7f 703e cc8e 2f3e
00000080: e8c6 753e a7fe 0dbe 81e7 24be 9e56 83be
00000090: 59b7 e73d 5248 f3bd 432e 553e 9ff4 ab3e
000000a0: 2ca7 6e3d 5526 8bbe 7828 a6be dd4a 11bc
000000b0: 6f67 e0be 7b3b 0a3f 07cc dabd 8f3c 80be
000000c0: c0d4 6dbe 2e52 fdbd 6510 913d c468 593e
000000d0: e359 4dbe 2285 583c cbea 603e 7b64 94be
000000e0: 2bcc b83d e21a 1e3c 7d1e 513e 7499 813e
000000f0: c7d9 06be 0ea0 83be 3e16 0dbe 8686 e1bd
00000100: 4e90 4abe 0aed 79be 8860 7bbe 4165 6b3e
00000110: 5e34 81be a58e 7cbe e382 983e 8df7 523e
00000120: 58fe bbbd 36ac f0bd 5292 9e3d eecb 67be
00000130: e56f 20bc 9190 60bd 33b6 133e 5150 a53e
00000140: e815 38bb fdd7 b5bd 74f4 043e d172 2c3e
00000150: 76f5 2ebe a5ec 7d3e 957b ae3e 34fa 80be
00000160: edea 503e ce92 363e 1283 f1be efca 2d3e
00000170: fa62 bb3d b86b 34be 0e7e 48be ce09 b8be
00000180: ac59 863e e30c 713e f650 9ebd c0b1 d53d
00000190: 3744 963e 6545 98bd e791 653e 6ada 273e
000001a0: 669f 7d3d f8eb f43c 14a8 1a3e 6f2a 963e
000001b0: 55a0 c53e 02e0 81be 861e 8ebe 3165 8b3d
000001c0: 8c59 39bd c8c3 b9bd 00e7 9cbd 0dba 8cbd
000001d0: 86e4 8fbe 2986 bb3d fbfd 79be 0734 7cbe
000001e0: efa7 693c b9b6 ab3e 8df2 8d3d 4a10 ed3e
000001f0: 23be 993d e5b9 2e3e a3ac 01bc 1dae 8e3c
00000200: 40c7 73be 1cbe c63d 3237 16be 9ee0 34be
00000210: f6c3 493e d168 8cbe 5297 9d3e 2279 2d3e
00000220: c63c af3d 32f8 1ebd fc9f 1b3e d33f cfbc
00000230: a445 8bbe 8c97 263e 7504 a6be 1404 b73e
00000240: 55f9 ce3d 2152 e8bc 9d71 0ebe 5efa 13be
00000250: bd2b 5fbe 573d ad3e f6e3 36bd f9e1 2bbd
00000260: 9d52 803e 972f 99be 1c4e 8f3e 9cfb bc3d
00000270: 98e5 0ebe ed90 213c 46c7 17be aba8 3d3e
00000280: ca76 e8bd 5591 7b3e e3f9 d8bd 18cf 013e
00000290: 7bb6 113d fb2f 15bd aadb 9bbd 5c22 cabe
000002a0: 57f8 d53e ca46 3abe 44e8 5fbe 0b84 23be
000002b0: 7ed1 3dbe d346 4c3d 5ea4 1d3e 0387 b23d
000002c0: 3b40 d5bc 5bc3 9f3e 0d9e 32bd 6b33 edbd
000002d0: e27c 7a3d ad84 1abd abc3 86be eecc ad3d
000002e0: bc57 8bbe 414e f3bd b422 ce3d b646 193e
000002f0: 1623 fbbd a9cb b63e e651 c53b ed30 c0be
00000300: a026 ea3d 2e11 77be 3cb1 40be a166 1dbd
00000310: 3787 0d3c e6a6 67bd d8cd 0c3d ed1d d3bb
00000320: 8772 c73e 552f 183c d5e6 00be b024 9e3d
00000330: 8ed9 26be 97fb 9e3d 7242 f23d a28c 7dbd
00000340: df9c b8bd 281a 6abe 8609 1d3d 31fe 8abe
00000350: 1b56 4fbe 4a02 083d 5d4e e3bb 21de 0ebe
00000360: b03f 0b3e 6046 cc3d 8ffb 1bbd a28f e5bd
00000370: c371 03bd 8f60 2cbe 454d 393e 85ac 953d
00000380: a32a eb3d e50d b9bb 6448 5c3e f56c 24be
00000390: 76ad c0be e27e 523e c944 debe bd94 c23d
000003a0: 603b 81be 7f18 d73e 6d3b 9dbd 95c7 7bbe
000003b0: cfa4 87be 9e57 f23d 814d e63d eae8 5c3e
000003c0: c3f1 3a3e 1a9d dfbd 65b4 1dbd 82c7 83be
000003d0: 914b 56be 132a 39bd 0b3e 4b3d 6820 3bbe
000003e0: 8d13 663e 008e 6e3e 5dbe 9a3d a596 da3d
000003f0: b033 edbd 58ea cebd 5471 9e3e bc0b 9fbe

linear1.bias f4 [256]
-0.14462614 -0.17512698 0.015878404 0.18955953 0.20307884 -0.27777514 -0.06734135 0.12598318
0.23770647 0.22671893 -0.12681569 0.1375807 0.091147095 -0.07473599 0.21779409 -0.07404944
-0.03214245 0.07213068 -0.00035641782 -0.21999165 0.15009908 0.15554479 -0.15317152 -0.18674776
-0.08531208 -0.36419183 -0.12913086 -0.120473064 0.18912484 0.11089873 -0.16287947 -0.08271074
0.0423893 0.14111517 -0.10199405 0.07550786 0.17478764 0.1648691 -0.0038607665 -0.06169882
-0.22165923 -0.05337715 0.230682 0.26135287 0.14576355 0.20845272 -0.21325292 0.060711127
-0.042628124 -0.15070859 -0.056329604 0.20636722 -0.18273048 0.31994545 -0.008918335 -0.048557036
-0.2853793 0.10318763 -0.0164131 0.30624118 -0.19858253 0.12021916 -0.10790483 -0.11414431
0.27691615 -0.26496395 -0.1050974 -0.24058358 0.19433671 -0.16403762 -0.17741631 0.13571168
-0.25108135 0.07509798 0.18020229 0.101564914 -0.22001779 -0.07684157 0.023895629 0.23331606
0.2822463 -0.060925957 -0.0755867 0.21027406 0.110438436 0.0669558 -0.006232765 0.06948638
-0.31652987 -0.00758472 -0.0023965645 -0.0070243212 -0.33320895 -0.07788014 0.120686255 0.21802673
0.16734734 0.16172333 -0.27841416 0.22086062 -0.15483135 -0.20760922 0.09407364 0.08569853
0.32916355 -0.16283071 -0.15837099 -0.04536199 -0.1513214 0.08520622 -0.1781305 0.1432708
-0.1814061 0.2785942 -0.11722031 -0.24193321 -0.043339845 0.17659082 0.28045824 0.08547162
0.17103592 -0.0022712853 0.20881763 0.027205756 0.24202943 0.2877344 -0.071135946 0.2447884
0.027106175 -0.18882938 -0.08586658 -0.11204178 -0.121903926 0.20442553 0.14113753 0.062553376
-0.075651504 0.11084224 0.12850785 -0.087566495 -0.14787717 0.29658476 -0.15833643 0.15829366
0.08714619 -0.016165413 0.09729957 -0.18615094 -0.28356475 -0.28558993 -0.18634044 0.0375201
0.08487749 0.19841702 -0.23455778 -0.18135673 -0.11306375 0.3580274 0.08203097 -0.0049893814
0.20625404 0.082301855 0.11362844 0.21216437 -0.047508046 -0.16010785 -0.08889184 -0.09069027
0.024857318 0.22268058 0.15288335 0.021571143 0.03254696 -0.1391383 0.020139718 0.08634753
0.01540509 0.05459287 -0.027324896 0.0155728515 -0.007591431 -0.13980936 0.065648474 -0.04871397
0.1444559 0.0074270098 0.29935762 0.084373206 0.26195714 -0.18138157 0.2830435 0.037198167
0.080643184 0.06304113 -0.07242331 0.19972292 0.115266904 -0.06764174 -0.20643204 -0.19177954
-0.13918097 0.07592352 -0.15502407 -0.11563789 -0.0398221 -0.15999894 -0.310988 -0.18549359
0.14902969 -0.02350917 -0.08110203 0.0016781777 -0.14917675 -0.11600472 -0.123109564 0.11777391
-0.22573006 -0.23515727 -0.18727195 0.06091513 -0.22860879 0.40936923 -0.08506066 -0.14888498
-0.19438793 0.29809922 0.100556895 0.2799599 -0.035799813 -0.25942934 0.21704033 0.26522106
-0.14522259 0.06926265 -0.0910773 0.28737408 0.1555805 0.10887312 -0.07567962 0.2633092
-0.31576547 0.027692689 0.015724894 -0.21243794 0.10478294 0.13998383 0.05383287 0.11888975
-0.1268378 0.22136858 0.24556242 0.25092885 -0.060769483 -0.020555936 0.1047931 0.20033056
00000000: e018 14be 7d54 33be 6d13 823c e51b 423e
00000010: e6f3 4f3e 8b38 8ebe 43ea 89bd bc01 013e
00000020: 5369 733e 0229 683e f9db 01be f4e1 0c3e
00000030: 54ab ba3d 2f0f 99bd 6a05 5f3e 3ca7 97bd
00000040: cda7 03bd 40b9 933d 97dd bab9 7e45 61be
00000050: 93b3 193e 2247 1f3e ffd8 1cbe ce3a 3fbe
00000060: 1ab8 aebd 5a77 babe e13a 04be 95ba f6bd
00000070: f1a9 413e e01e e33d e0c9 26be 4064 a9bd
00000080: 67a0 2d3d 7f80 103e 42e2 d0bd dda3 9a3d
00000090: 88fb 323e 72d3 283e ea04 7dbb e7b7 7cbd
000000a0: a3fa 62be 00a2 5abd e737 6c3e 0bd0 853e
000000b0: 0a43 153e a174 553e f95e 5abe 3bac 783d
000000c0: d49a 2ebd 5a53 1abe dfb9 66bd ee51 533e
000000d0: b31d 3bbe e4cf a33e 351e 12bc bee3 46bd
000000e0: 3c1d 92be 0954 d33d c474 86bc a5cb 9c3e
000000f0: 3859 4bbe 7735 f63d 35fd dcbd 7ec4 e9bd
00000100: f4c7 8d3e 5ba9 87be 4e3d d7bd 8b5b 76be
00000110: 3400 473e 7af9 27be 9fac 35be 01f8 0a3e
00000120: bc8d 80be f8cc 993d f386 383e 4401 d03d
00000130: 584c 61be 1d5f 9dbd c4c0 c33c 68ea 6e3e
00000140: 9682 903e 7f8d 79bd 33cd 9abd 1552 573e
00000150: 8c2d e23d 1f20 893d 393c ccbb e04e 8e3d
00000160: 3410 a2be 3e89 f8bb ae0f 1dbb 472c e6bb
00000170: 5d9a aabe 9f7f 9fbd 5b2a f73d 6642 5f3e
00000180: 1a5d 2b3e cd9a 253e 4d8c 8ebe 4929 623e
00000190: 1c8c 1ebe 8397 54be aea9 c03d b682 af3d
000001a0: 2088 a83e 18bd 26be 012c 22be 7ecd 39bd
000001b0: fff3 1abe 9980 ae3d d767 36be 95b5 123e
000001c0: 85c2 39be e6a3 8e3e 3411 f0bd 57bd 77be
000001d0: 1f85 31bd 39d4 343e 3998 8f3e bf0b af3d
000001e0: 0a24 2f3e d8d9 14bb 4ad4 553e 9bde de3c
000001f0: 90d6 773e ec51 933e b9af 91bd cfa9 7a3e
00000200: c50d de3c 7d5c 41be d1da afbd 2976 e5bd
00000210: c4a8 f9bd ed54 513e 5b86 103e fc1b 803d
00000220: 2def 9abd 4201 e33d 9097 033e 1056 b3bd
00000230: 1d6d 17be f5d9 973e f222 22be bc17 223e
00000240: b479 b23d 546d 84bc ff44 c73d 5a9e 3ebe
00000250: 662f 91be d838 92be 07d0 3ebe adae 193d
00000260: 40d4 ad3d d52d 4b3e ea2f 70be 94b5 39be
00000270: f88d e7bd 5e4f b73e daff a73d f77d a3bb
00000280: 4234 533e e08d a83d 07b6 e83d 9e41 593e
00000290: cc97 42bd 50f3 23be ed0c b6bd d2bb b9bd
000002a0: 93a1 cb3c 6106 643e 748d 1c3e f7b5 b03c
000002b0: f64f 053d 457a 0ebe 0dfc a43c f9d6 b03d
000002c0: a165 7c3c c69c 5f3d 76d8 dfbc 4625 7f3c
000002d0: 8ac1 f8bb 2f2a 0fbe b572 863d 4d88 47bd
000002e0: 3fec 133e 465e f33b 6745 993e dccb ac3d
000002f0: 3f1f 863e 17bc 39be 14eb 903e 1b5d 183d
00000300: 4128 a53d b51b 813d ac52 94bd 2a84 4c3e
00000310: 0e11 ec3d c187 8abd ec62 53be db61 44be
00000320: 7585 0ebe ca7d 9b3d a1be 1ebe 8fd3 ecbd
00000330: 801c 23bd c3d6 23be d239 9fbe 08f2 3dbe
00000340: 3d9b 183e 4e96 c0bc d218 a6bd 4df6 db3a
00000350: cac1 18be e293 edbd de20 fcbd 7333 f13d
00000360: c825 67be 11cd 70be 38c4 3fbe 2582 793d
00000370: 6c18 6abe d898 d13e 4934 aebd 4e75 18be
00000380: a10d 47be 76a0 983e c6f0 cd3d e756 8f3e
00000390: d3a2 12bd ecd3 84be d23f 5e3e 0ecb 873e
000003a0: 3bb5 14be 94d9 8d3d bc86 babd b222 933e
000003b0: 7f50 1f3e dff8 de3d ebfd 9abd 77d0 863e
000003c0: 03ac a1be c7db e23c 7ed1 803c 5589 59be
000003d0: 7098 d63d ec57 0f3e db7f 5c3d 787c f33d
000003e0: c5e1 01be 72ae 623e b774 7b3e bf79 803e
000003f0: 6ce9 78bd ec64 a8bc c49d d63d 7423 4d3e

linear2.weight f4 [3, 256]
0.119683266 -0.20886965 -0.10361021 0.1832241 0.1500431 -0.057314835 0.13710025 -0.083921574
-0.15952112 -0.056649614 0.085936524 -0.08065344 -0.05298559 -0.15350857 -0.07936347 -0.21144545
-0.042784676 -0.11603548 0.014782543 0.0019753675 -0.12747452 -0.06566231 -0.1470629 -0.016060766
0.0375464 -0.0036044677 -0.12974867 -0.19410866 -0.038979653 -0.078976154 -0.044745263 -0.083241455
-0.11466677 -0.104270525 0.04377427 -0.17928408 -0.08482496 -0.114777945 -0.12752286 -0.14773987
-9.778142e-05 -0.011617687 0.014216278 -0.043086804 -0.096398115 -0.034329444 0.010066411 -0.13546614
0.02271455 0.10215206 -0.22894192 -0.09528111 -0.21018222 0.059717137 0.08563691 0.19627264
-0.04195822 -0.04419919 0.07569238 0.042562846 -0.10618511 0.16031338 0.046974324 0.22419178
-0.04762964 -0.020960141 -0.010751592 0.052310877 0.03781056 -0.0009039897 -0.05748986 -0.0443419
0.010095957 -0.04295672 -0.11871307 -0.060446266 0.1828713 0.18310966 -0.14082731 0.07143453
-0.16463354 -0.10888049 0.039659444 -0.15075515 0.105804816 -0.09322984 -0.031259652 0.087920405
0.0048539457 0.09447874 -0.034751568 -0.17194045 -0.0009882174 -0.0935032 -0.06570227 0.08418787
0.028069647 -0.028586328 0.04632707 -0.03802749 0.18678664 -0.06389186 -0.08278166 -0.16437243
0.038412094 -0.15692922 -0.17454745 0.107459314 -0.16930088 -0.15781967 0.0606246 0.069459066
-0.03290619 0.10136626 -0.041108347 -0.00045930594 0.08934051 -0.039417118 -0.17583805 0.12540309
0.034499314 0.031598933 0.034140356 -0.040491894 0.071760826 -0.11945768 -0.1789439 -0.024813142
-0.068766735 -0.16563684 0.027307138 -0.16870014 -0.059727553 -0.06670867 0.018591128 -0.07145482
-0.04897497 0.047794215 -0.1936747 0.068131335 -0.055735335 -0.06902247 -0.09787562 -0.098957844
-0.19352615 -0.06266828 -0.07483015 -0.19637573 0.043706886 0.05772951 -0.14693764 -0.024247147
0.031217584 0.028026856 0.00090468454 -0.07008574 -0.044121508 -0.0106286425 -0.21397373 -0.047675636
-0.13023517 -0.048046127 0.03234697 -0.07366331 -0.06770586 -0.32682097 0.12662473 -0.1015477
-0.030475566 -0.016610041 -0.16418816 -0.1499729 -0.046846744 0.14905646 0.05113677 0.103203624
-0.1267879 -0.093879774 0.10800652 -0.08994613 -0.13243148 -0.14895305 -0.049876533 0.04421231
-0.031970657 -0.18667562 -0.054968305 -0.07184704 -0.066993944 -0.015687568 -0.096998826 -0.118732415
-0.11847151 -0.0046050507 -0.008155843 -0.14483048 -0.09515176 -0.07303661 0.14879353 0.035171818
0.0196124 0.11154794 -0.06434463 0.008662665 -0.073611654 0.15000843 -0.09538497 0.03618881
-0.016459648 -0.045302775 -0.17199971 -0.06907699 -0.012289564 -0.1293103 -0.00078753254 -0.037464194
-0.041527726 0.11771065 0.037297267 -0.1414513 -0.03436573 0.17599395 0.06401749 0.118248306
0.07944358 -0.04366318 -0.07706809 -0.05104393 -0.05410854 -0.05125735 0.07828558 -0.04180206
0.09940845 -0.08010427 -0.080293454 -0.13674311 -0.059801742 -0.015319319 0.03558697 0.036177
-0.01937812 -0.16518742 0.100210816 -0.08295602 -0.06825929 -0.0147894565 -0.07022289 -0.04990765
0.14944428 -0.14580102 -0.2032747 -0.105308294 -0.092448674 -0.124951996 -0.15790676 -0.13652153
00000000: 801c f53d ede1 55be 9731 d4bd 199f 3b3e
00000010: e6a4 193e f6c2 6abd 0264 0c3e 13df abbd
00000020: 8159 23be 6d09 68bd 7dff af3d a12d a5bd
00000030: 6b07 59bd 5a31 1dbe 5189 a2bd 2885 58be
00000040: fc3e 2fbd 02a4 edbd 7b32 723c 2b75 013b
00000050: ae88 02be f679 86bd a897 16be de91 83bc
00000060: 41ca 193d ef38 6cbb d6dc 04be 6cc4 46be
00000070: 21a9 1fbd 40be a1bd cf46 37bd 7f7a aabd
00000080: 69d6 eabd c98b d5bd a64c 333d 3f96 37be
00000090: b5b8 adbd b310 ebbd 5a95 02be 1f49 17be
000000a0: 0010 cdb8 1c58 3ebc 64eb 683c ca7b 30bd
000000b0: 606c c5bd 089d 0cbd 97ed 243c a3b7 0abe
000000c0: dd13 ba3c 1935 d13d c06f 6abe be22 c3bd
000000d0: 023a 57be f599 743d 6762 af3d b2fb 483e
000000e0: 62dc 2bbd 360a 35bd 9b04 9b3d 6156 2e3d
000000f0: 9477 d9bd 3129 243e 2668 403d 8892 653e
00000100: 4c17 43bd 9ab4 abbc 7227 30bc ee43 563d
00000110: 3fdf 1a3d b9f9 6cba 7d7a 6bbd da9f 35bd
00000120: 8369 253c 63f3 2fbd d71f f3bd 8196 77bd
00000130: 9d42 3b3e 1981 3b3e 0935 10be 444c 923d
00000140: b295 28be bcfc debd f171 223d 8f5f 1abe
00000150: 32b0 d83d 49ef bebd 1f0a 00bd 9d0f b43d
00000160: d90d 9f3b 127e c13d a957 0ebd 2811 30be
00000170: 1387 81ba 9b7e bfbd e98e 86bd b16a ac3d
00000180: 51f2 e53c e02d eabc 74c1 3d3d b7c2 1bbd
00000190: ff44 3f3e bcd9 82bd 6e89 a9bd 3f51 28be
000001a0: 0056 1d3d 0eb2 20be 91bc 32be a113 dc3d
000001b0: 365d 2dbe 7b9b 21be 8051 783d 8e40 8e3d
000001c0: a4c8 06bd 1d99 cf3d 3a61 28bd 00cf f0b9
000001d0: 28f8 b63d d873 21bd e40e 34be ab69 003e
000001e0: 274f 0d3d e26d 013d c2d6 0b3d d4da 25bd
000001f0: 57f7 923d 3aa6 f4bd 123d 37be ee44 cbbc
00000200: 93d5 8cbd b49c 29be 38b3 df3c bbbf 2cbe
00000210: e1a4 74bd 8e9e 88bd 6c4c 983c e856 92bd
00000220: fa99 48bd dec3 433d a952 46be 7188 8b3d
00000230: bc4a 64bd a75b 8dbd 0373 c8bd 69aa cabd
00000240: b82b 46be 3a58 80bd 8d40 99bd b816 49be
00000250: fe05 333d c775 6c3d d276 16be f4a1 c6bc
00000260: 05bc ff3c 9498 e53c 5a28 6d3a 1d89 8fbd
00000270: c1b8 34bd c223 2ebc ee1b 5bbe 8747 43bd
00000280: 5e5c 05be 04cc 44bd 427e 043d cadc 96bd
00000290: 5fa9 8abd 1455 a7be eaa9 013e 3ef8 cfbd
000002a0: e5a7 f9bc c811 88bc f120 28be 7f92 19be
000002b0: 5fe2 3fbd 42a2 183e ca74 513d 6c5c d33d
000002c0: b0d4 01be 0a44 c0bd 8632 dd3d ad35 b8bd
000002d0: 1e9c 07be 2687 18be 564b 4cbd f817 353d
000002e0: aaf3 02bd e527 3fbe 7226 61bd 8a24 93bd
000002f0: 1f34 89bd 3783 80bc 52a7 c6bd fb29 f3bd
00000300: 31a1 f2bd f7e5 96bb 16a0 05bc 714e 14be
00000310: edde c2bd 3894 95bd 555d 183e 5310 103d
00000320: 2faa a03c 3f73 e43d 1ec7 83bd daed 0d3c
00000330: b5c1 96bd cf9b 193e 3259 c3bd b83a 143d
00000340: 62d6 86bc 678f 39bd b120 30be 3d78 8dbd
00000350: 2b5a 49bc eb69 04be 6a72 4eba 0e74 19bd
00000360: fa18 2abd 4812 f13d 05c5 183d 9cd8 10be
00000370: 14c3 0cbd c237 343e 9a1b 833d 2b2c f23d
00000380: 51b3 a23d 2ad8 32bd e0d5 9dbd 7113 51bd
00000390: eba0 5dbd 3af3 51bd 3154 a03d a338 2bbd
000003a0: a896 cb3d b50d a4bd e570 a4bd 6306 0cbe
000003b0: acf2 74bd e2fd 7abc a5c3 113d 552e 143d
000003c0: ddbe 9ebc e426 29be 543b cd3d d9e4 a9bd
000003d0: 87cb 8bbd 7a4f 72bc 05d1 8fbd f76b 4cbd
000003e0: ec07 193e dd4c 15be 3e27 50be e0ab d7bd
000003f0: bb55 bdbd d5e6 ffbd 4fb2 21be 4dcc 0bbe

linear2.bias f4 [3]
-0.010183702 -0.10938336 -0.0868191
00000000: 8bd9 26bc 6204 e0bd 36ce b1bd
